…
           5.5144e-01, -5.2406e-01],
         [ 4.6706e-04,  1.6225e-01, -6.4443e-02,  ...,  4.9443e-01,
           6.9413e-01,  3.6286e-01],
         ...,
         [-4.7717e-01, -3.4798e-01, -4.3069e-01,  ...,  2.2722e-01,
           4.8370e-01,  6.4643e-01],
         [-1.6246e+00,  7.2719e-02,  7.5170e-01,  ..., -3.8820e-01,
           7.0720e-01, -5.9501e-02],
         [-2.5515e-01, -2.6706e-01,  7.9946e-02,  ..., -4.2870e-01,
           3.4145e-01, -1.0551e-01]]], grad_fn=<NativeLayerNormBackward0>)


model architecture (BERT without heads):
BertModel(
  (embeddings): BertEmbeddings(
    (word_embeddings): Embedding(30522, 768, padding_idx=0)
    (position_embeddings): Embedding(512, 768)
    (token_type_embeddings): Embedding(2, 768)
    (LayerNorm): LayerNorm((768,), eps=1e-12, elementwise_affine=True)
    (dropout): Dropout(p=0.1, inplace=False)
  )
  (encoder): BertEncoder(
    (layer): ModuleList(
      (0-11): 12 x BertLayer(
        (attention): BertAttention(
          (self): BertSelfAttention(
            (query): Linear(in_features=768, out_features=768, bias=True)
            (key): Linear(in_features=768, out_features=768, bias=True)
            (value): Linear(in_features=768, out_features=768, bias=True)
            (dropout): Dropout(p=0.1, inplace=False)
          )
          (output): BertSelfOutput(
            (dense): Linear(in_features=768, out_features=768, bias=True)
            (LayerNorm): LayerNorm((768,), eps=1e-12, elementwise_affine=True)
            (dropout): Dropout(p=0.1, inplace=False)
          )
        )
        (intermediate): BertIntermediate(
          (dense): Linear(in_features=768, out_features=3072, bias=True)
          (intermediate_act_fn): GELUActivation()
        )
        (output): BertOutput(
          (dense): Linear(in_features=3072, out_features=768, bias=True)
          (LayerNorm): LayerNorm((768,), eps=1e-12, elementwise_affine=True)
          (dropout): Dropout(p=0.1, inplace=False)
        )
      )
    )
  )
  (pooler): BertPooler(
    (dense): Linear(in_features=768, out_features=768, bias=True)
    (activation): Tanh()
  )
)


encoded output tensor:
encoded output tensor size = torch.Size([1, 8, 768])
encoded output tensor size = tensor([[[-0.1144,  0.1937,  0.1250,  ..., -0.3827,  0.2107,  0.5407],
         [ 0.5308,  0.3207,  0.3665,  ..., -0.0036,  0.7579,  0.0388],
         [-0.4877,  0.8849,  0.4256,  ..., -0.6976,  0.4458,  0.1231],
         ...,
         [-0.7003, -0.1815,  0.3297,  ..., -0.4838,  0.0680,  0.8901],
         [-1.0355, -0.2567, -0.0317,  ...,  0.3197,  0.3999,  0.1795],
         [ 0.6080,  0.2610, -0.3131,  ...,  0.0311, -0.6283, -0.1994]]],
       grad_fn=<NativeLayerNormBackward0>)


model architecture (BERT with pre-training heads):
BertForPreTraining(
  (bert): BertModel(
    (embeddings): BertEmbeddings(
      (word_embeddings): Embedding(30522, 768, padding_idx=0)
      (position_embeddings): Embedding(512, 768)
      (token_type_embeddings): Embedding(2, 768)
      (LayerNorm): LayerNorm((768,), eps=1e-12, elementwise_affine=True)
      (dropout): Dropout(p=0.1, inplace=False)
    )
    (encoder): BertEncoder(
      (layer): ModuleList(
        (0-11): 12 x BertLayer(
          (attention): BertAttention(
            (self): BertSelfAttention(
              (query): Linear(in_features=768, out_features=768, bias=True)
              (key): Linear(in_features=768, out_features=768, bias=True)
              (value): Linear(in_features=768, out_features=768, bias=True)
              (dropout): Dropout(p=0.1, inplace=False)
            )
            (output): BertSelfOutput(
              (dense): Linear(in_features=768, out_features=768, bias=True)
              (LayerNorm): LayerNorm((768,), eps=1e-12, elementwise_affine=True)
              (dropout): Dropout(p=0.1, inplace=False)
            )
          )
          (intermediate): BertIntermediate(
            (dense): Linear(in_features=768, out_features=3072, bias=True)
            (intermediate_act_fn): GELUActivation()
          )
          (output): BertOutput(
            (dense): Linear(in_features=3072, out_features=768, bias=True)
            (LayerNorm): LayerNorm((768,), eps=1e-12, elementwise_affine=True)
            (dropout): Dropout(p=0.1, inplace=False)
          )
        )
      )
    )
    (pooler): BertPooler(
      (dense): Linear(in_features=768, out_features=768, bias=True)
      (activation): Tanh()
    )
  )
  (cls): BertPreTrainingHeads(
    (predictions): BertLMPredictionHead(
      (transform): BertPredictionHeadTransform(
        (dense): Linear(in_features=768, out_features=768, bias=True)
        (transform_act_fn): GELUActivation()
        (LayerNorm): LayerNorm((768,), eps=1e-12, elementwise_affine=True)
      )
      (decoder): Linear(in_features=768, out_features=30522, bias=True)
    )
    (seq_relationship): Linear(in_features=768, out_features=2, bias=True)
  )
)
masked token prediction logits = tensor([[[ -7.8962,  -7.8105,  -7.7903,  ...,  -7.0694,  -7.1693,  -4.3590],
         [ -8.4461,  -8.4401,  -8.5044,  ...,  -8.0625,  -7.9909,  -5.7160],
         [-15.2953, -15.4727, -15.5865,  ..., -12.9857, -11.7038, -11.4293],
         ...,
         [-14.0628, -14.2536, -14.3645,  ..., -12.7151, -11.1621, -10.2317],
…
- This IS expected if you are initializing BertForNextSentencePrediction from the checkpoint of a model trained on another task or with another architecture (e.g. initializing a BertForSequenceClassification model from a BertForPreTraining model).
- This IS NOT expected if you are initializing BertForNextSentencePrediction from the checkpoint of a model that you expect to be exactly identical (initializing a BertForSequenceClassification model from a BertForSequenceClassification model).


model architecture (BERT with next sentence prediction head):
BertForNextSentencePrediction(
  (bert): BertModel(
    (embeddings): BertEmbeddings(
      (word_embeddings): Embedding(30522, 768, padding_idx=0)
      (position_embeddings): Embedding(512, 768)
      (token_type_embeddings): Embedding(2, 768)
      (LayerNorm): LayerNorm((768,), eps=1e-12, elementwise_affine=True)
      (dropout): Dropout(p=0.1, inplace=False)
    )
    (encoder): BertEncoder(
      (layer): ModuleList(
        (0-11): 12 x BertLayer(
          (attention): BertAttention(
            (self): BertSelfAttention(
              (query): Linear(in_features=768, out_features=768, bias=True)
              (key): Linear(in_features=768, out_features=768, bias=True)
              (value): Linear(in_features=768, out_features=768, bias=True)
              (dropout): Dropout(p=0.1, inplace=False)
            )
            (output): BertSelfOutput(
              (dense): Linear(in_features=768, out_features=768, bias=True)
              (LayerNorm): LayerNorm((768,), eps=1e-12, elementwise_affine=True)
              (dropout): Dropout(p=0.1, inplace=False)
            )
          )
          (intermediate): BertIntermediate(
            (dense): Linear(in_features=768, out_features=3072, bias=True)
            (intermediate_act_fn): GELUActivation()
          )
          (output): BertOutput(
            (dense): Linear(in_features=3072, out_features=768, bias=True)
            (LayerNorm): LayerNorm((768,), eps=1e-12, elementwise_affine=True)
            (dropout): Dropout(p=0.1, inplace=False)
          )
        )
      )
    )
    (pooler): BertPooler(
      (dense): Linear(in_features=768, out_features=768, bias=True)
      (activation): Tanh()
    )
  )
  (cls): BertOnlyNSPHead(
    (seq_relationship): Linear(in_features=768, out_features=2, bias=True)
  )
)
input seq (unrelated sents) =  ['[CLS]', 'in', 'italy', ',', 'pizza', 'served', 'in', 'formal', 'settings', ',', 'such', 'as', 'at', 'a', 'restaurant', ',', 'is', 'presented', 'un', '##sl', '##ice', '##d', '.', '[SEP]', 'the', 'sky', 'is', 'blue', 'due', 'to', 'the', 'shorter', 'wavelength', 'of', 'blue', 'light', '.', '[SEP]']
loss = tensor(0.0001, grad_fn=<NllLossBackward0>)
…
